{"class_name": "Functional", "config": {"name": "model_3", "layers": [{"class_name": "InputLayer", "config": {"batch_input_shape": [null, 23], "dtype": "float32", "sparse": false, "ragged": false, "name": "input_layer"}, "name": "input_layer", "inbound_nodes": []}, {"class_name": "BatchNormalization", "config": {"name": "batchnorm-1", "trainable": true, "dtype": "float32", "axis": [1], "momentum": 0.75, "epsilon": 0.0001, "center": true, "scale": true, "beta_initializer": {"class_name": "Zeros", "config": {}}, "gamma_initializer": {"class_name": "Ones", "config": {}}, "moving_mean_initializer": {"class_name": "Zeros", "config": {}}, "moving_variance_initializer": {"class_name": "Ones", "config": {}}, "beta_regularizer": null, "gamma_regularizer": null, "beta_constraint": null, "gamma_constraint": null}, "name": "batchnorm-1", "inbound_nodes": [[["input_layer", 0, 0, {}]]]}, {"class_name": "MaskedDense", "config": {"name": "masked_dense-1", "trainable": true, "dtype": "float32", "units": 20, "mask": [[… "kernel_initializer": {"class_name": "GlorotUniform", "config": {"seed": null}, "__passive_serialization__": true}, "bias_initializer": null, "kernel_regularizer": null, "bias_regularizer": null, "activation": "linear"}, "name": "masked_dense-1", "inbound_nodes": [[["batchnorm-1", 0, 0, {}]]]}, {"class_name": "BatchNormalization", "config": {"name": "batchnorm-2", "trainable": true, "dtype": "float32", "axis": [1], "momentum": 0.75, "epsilon": 0.0001, "center": true, "scale": true, "beta_initializer": {"class_name": "Zeros", "config": {}}, "gamma_initializer": {"class_name": "Ones", "config": {}}, "moving_mean_initializer": {"class_name": "Zeros", "config": {}}, "moving_variance_initializer": {"class_name": "Ones", "config": {}}, "beta_regularizer": null, "gamma_regularizer": null, "beta_constraint": null, "gamma_constraint": null}, "name": "batchnorm-2", "inbound_nodes": [[["masked_dense-1", 0, 0, {}]]]}, {"class_name": "Activation", "config": {"name": "layer_activation-1", "trainable": true, "dtype": "float32", "activation": "tanh"}, "name": "layer_activation-1", "inbound_nodes": [[["batchnorm-2", 0, 0, {}]]]}, {"class_name": "MaskedDense", "config": {"name": "masked_dense-2", "trainable": true, "dtype": "float32", "units": 15, "mask": [[… "kernel_initializer": {"class_name": "GlorotUniform", "config": {"seed": null}, "__passive_serialization__": true}, "bias_initializer": null, "kernel_regularizer": null, "bias_regularizer": null, "activation": "linear"}, "name": "masked_dense-2", "inbound_nodes": [[["layer_activation-1", 0, 0, {}]]]}, {"class_name": "BatchNormalization", "config": {"name": "batchnorm-3", "trainable": true, "dtype": "float32", "axis": [1], "momentum": 0.75, "epsilon": 0.0001, "center": true, "scale": true, "beta_initializer": {"class_name": "Zeros", "config": {}}, "gamma_initializer": {"class_name": "Ones", "config": {}}, "moving_mean_initializer": {"class_name": "Zeros", "config": {}}, "moving_variance_initializer": {"class_name": "Ones", "config": {}}, "beta_regularizer": null, "gamma_regularizer": null, "beta_constraint": null, "gamma_constraint": null}, "name": "batchnorm-3", "inbound_nodes": [[["masked_dense-2", 0, 0, {}]]]}, {"class_name": "Activation", "config": {"name": "layer_activation-2", "trainable": true, "dtype": "float32", "activation": "tanh"}, "name": "layer_activation-2", "inbound_nodes": [[["batchnorm-3", 0, 0, {}]]]}, {"class_name": "MaskedDense", "config": {"name": "masked_dense-3", "trainable": true, "dtype": "float32", "units": 10, "mask": [[… "kernel_initializer": {"class_name": "GlorotUniform", "config": {"seed": null}, "__passive_serialization__": true}, "bias_initializer": null, "kernel_regularizer": null, "bias_regularizer": null, "activation": "linear"}, "name": "masked_dense-3", "inbound_nodes": [[["layer_activation-2", 0, 0, {}]]]}, {"class_name": "BatchNormalization", "config": {"name": "batchnorm-4", "trainable": true, "dtype": "float32", "axis": [1], "momentum": 0.75, "epsilon": 0.0001, "center": true, "scale": true, "beta_initializer": {"class_name": "Zeros", "config": {}}, "gamma_initializer": {"class_name": "Ones", "config": {}}, "moving_mean_initializer": {"class_name": "Zeros", "config": {}}, "moving_variance_initializer": {"class_name": "Ones", "config": {}}, "beta_regularizer": null, "gamma_regularizer": null, "beta_constraint": null, "gamma_constraint": null}, "name": "batchnorm-4", "inbound_nodes": [[["masked_dense-3", 0, 0, {}]]]}, {"class_name": "Activation", "config": {"name": "layer_activation-3", "trainable": true, "dtype": "float32", "activation": "tanh"}, "name": "layer_activation-3", "inbound_nodes": [[["batchnorm-4", 0, 0, {}]]]}, {"class_name": "Dense", "config": {"name": "output_dense", "trainable": true, "dtype": "float32", "units": 2, "activation": "linear", "use_bias": true, "kernel_initializer": {"class_name": "GlorotUniform", "config": {"seed": null}}, "bias_initializer": {"class_name": "Zeros", "config": {}}, "kernel_regularizer": null, "bias_regularizer": null, "activity_regularizer": null, "kernel_constraint": null, "bias_constraint": null}, "name": "output_dense", "inbound_nodes": [[["layer_activation-3", 0, 0, {}]]]}], "input_layers": [["input_layer", 0, 0]], "output_layers": [["output_dense", 0, 0]]}, "keras_version": "2.4.0", "backend": "tensorflow"}